checkpoint.pt (torch, 161513 bytes, 20 tensors)

hidden_features_gamma.0.weight f4 [50, 25]
0.018248575 -0.0008457685 0.002589421 -0.003567807 0.0074406574 0.016823424 -0.016543567 -0.010333682
-0.0147712175 0.0072711683 0.0111949025 -0.0063393726 -0.0036978803 0.009931413 0.005113316 -0.0073260246
-0.0035755066 0.022335775 -0.00027475983 0.022211026 -0.008753165 -0.0053938604 0.008715619 -0.012012001
-0.0078056543 0.0069777165 -0.0025410622 0.0070210304 0.0036789253 0.011429765 0.002661311 0.004287298
-0.01976143 -0.005850977 0.0207366 -0.0012024317 -0.0022187775 0.0053651687 0.0066194856 0.008004881
-0.010452325 0.007043678 -0.0058307005 0.0011329646 -0.003235381 -0.0019920124 -0.024805818 -0.013169282
0.007057451 -0.012225152 -0.0065095904 0.002811554 -0.010930482 0.0034011344 -0.005704046 -0.015226299
-0.008848128 -0.009724005 0.024318518 0.005187504 -0.0054567573 0.010549492 -0.011758157 -0.0036201994
-0.0050064973 -0.012584326 0.022883454 0.019713985 -0.008348422 0.018508513 0.0038015791 0.007057297
-0.004429602 0.009658288 0.0062807007 0.006490632 0.0058019636 -0.02415236 0.0014328089 -0.0031260177
0.010832736 0.0062219272 0.0073807156 -0.00038731957 0.006408066 0.0055008437 -0.0050117164 -0.007703048
-0.004176766 0.009969755 -0.0027690353 -0.0178712 0.0077248127 0.0096144 0.0038041985 0.004500737
3.6861944e-05 0.014665281 -0.009658085 -0.003473734 2.7512124e-05 0.022657007 0.007245951 -0.006224884
0.006283938 -0.016545244 0.001181759 -0.0027191292 0.023912206 0.001102103 -0.0023058471 -0.010851767
0.025405688 0.013542062 0.005105724 -0.0012251395 0.006020092 0.014109491 -0.0054552923 -0.0040938123
0.0035426721 0.001337192 0.007007827 0.0026328934 -0.012244926 0.005879963 0.00957041 -0.017006777
0.010559905 0.0036488136 -0.011556478 0.0025946503 -0.019177664 -0.012303627 -0.0054442193 0.020217057
0.019698482 0.005302975 -0.010422295 0.002533176 0.015600082 0.013868308 0.022594191 0.0032238832
0.0024227323 0.0040609394 0.018078951 0.003152135 0.015127256 0.015532726 -0.015101183 0.0041174083
0.0014520551 0.0002659238 -0.0014176767 0.0009517097 0.0044783573 -0.0054364405 -0.0061583677 -0.013464223
0.010922675 -0.015586195 0.010622647 -0.0072214305 0.0068723126 -0.013726275 -0.016057244 0.0047481684
0.006157428 0.0016432008 -0.010077096 0.00503818 0.003909706 0.012253028 0.004177277 -0.013904011
0.009134606 0.010202484 -0.02085706 -0.013256574 0.014166995 -0.011222448 0.017305356 0.014760972
0.004967083 -0.0003761507 0.012306993 0.021584291 0.003704168 -0.0051812693 -0.0166816 -0.0025228
-0.0066970256 0.006201837 0.0039836466 0.017280348 -0.0017469097 0.0055448604 0.0035537696 0.007325733
0.009772581 0.009156137 0.007007055 -0.010805429 -0.008532703 -0.0053157057 0.018121764 0.0120066805
-0.01569199 -0.010737278 0.000668368 -0.003695188 0.0016943242 -0.0073110727 -0.0016750527 -0.0053276056
0.0021304318 0.0043449397 0.018672574 0.012440243 0.010653793 0.0015618753 -0.0015122953 -0.00799491
-0.020197043 0.0022696939 -0.0016518853 0.008006333 -0.017965745 0.021274528 -0.00881869 -0.008989747
0.012567721 -0.01972051 0.0025807635 0.002256325 0.0055938954 0.012440565 -0.005659192 0.0026005772
0.0027901134 0.0078093694 -0.0054459996 0.0003955968 -0.0022203596 0.011316603 -0.027460026 -0.020056205
-0.012548059 0.0067662266 0.007868479 0.0045486046 -0.007015415 -0.010133634 -0.02008585 -0.014307322
00000000: 097e 953c 90b6 5dba 47b3 293b ded1 69bb
00000010: c2d0 f33b 47d1 893c 6086 87bc 9b4e 29bc
00000020: fa02 72bc fb42 ee3b d36a 373c 83ba cfbb
00000030: 2358 72bb 5eb7 223c 9a8d a73b 260f f0bb
00000040: 0c53 6abb 84f9 b63c a40d 90b9 e6f3 b53c
00000050: 6f69 0fbc fbbe b0bb f5cb 0e3c fccd 44bc
00000060: 93c6 ffbb 54a5 e43b f387 26bb ac10 e63b
00000070: 201a 713b e943 3b3c 6469 2e3b 767c 8c3b
00000080: b9e2 a1bc 8db9 bfbb cddf a93c ea9a 9dba
00000090: e968 11bb 4cce af3b 45e8 d83b e826 033c
000000a0: 3b40 2bbc a7ce e63b 760f bfbb fc7f 943a
000000b0: b008 54bb 6c8c 02bb 9235 cbbc f9c3 57bc
000000c0: 3142 e73b 014c 48bc 674e d5bb 0c42 383b
000000d0: c415 33bc 91e5 5e3b 02e9 babb ba77 79bc
000000e0: bdf7 10bc 6f51 1fbc a137 c73c f0fb a93b
000000f0: 99ce b2bb c7d7 2c3c 49a5 40bc de40 6dbb
00000100: 8b0d a4bb 7d2e 4ebc 1576 bb3c 397f a13c
00000110: d2c7 08bc 2a9f 973c ea23 793b e640 e73b
00000120: 3226 91bb cc3d 1e3c 56ce cd3b 5eaf d43b
00000130: 661e be3b 2cdb c5bc 17cd bb3a e0dd 4cbb
00000140: ca7b 313c 4fe1 cb3b eed9 f13b 2711 cbb9
00000150: c1fa d13b 6c40 b43b 5339 a4bb da69 fcbb
00000160: 41dd 88bb 2f58 233c b478 35bb 9f66 92bc
00000170: 6d20 fd3b b785 1d3c dc4f 793b eb7a 933b
00000180: 369c 1a38 a646 703c f23c 1ebc 96a7 63bb
00000190: d6c9 e637 309b b93c 716f ed3b 1dfa cbbb
000001a0: 7ee9 cd3b e489 87bc 41e5 9a3a 6b33 32bb
000001b0: 88e3 c33c 7174 903a b21d 17bb 9ccb 31bc
000001c0: 971f d03c 86df 5d3c eb4d a73b dc94 a0ba
000001d0: 3144 c53b 7f2b 673c 4fc2 b2bb 6325 86bb
000001e0: 2d2c 683b b844 af3a eaa1 e53b 9f8c 2c3b
000001f0: f19e 48bc b4ac c03b 35cd 1c3c cc51 8bbc
00000200: 7403 2d3c ef20 6f3b 6257 3dbc 020b 2a3b
00000210: 7a1a 9dbc 2795 49bc 6c65 b2bb 3e9e a53c
00000220: b65e a13c 94c4 ad3b 46c2 2abc a403 263b
00000230: 7d97 7f3c e637 633c 7417 b93c c947 533b
00000240: b4c6 1e3b a111 853b 4f1a 943c 0d94 4e3b
00000250: 4fd8 773c fa7c 7e3c f46a 77bc 53eb 863b
00000260: e252 be3a b06b 8b39 56d1 b9ba 287c 793a
00000270: 2fbf 923b 2b24 b2bb 22cc c9bb 0b99 5cbc
00000280: 05f5 323c 3d5d 7fbc 9c0a 2e3c c0a1 ecbb
00000290: 2331 e13b 2ce4 60bc 7b8a 83bc 8696 9b3b
000002a0: 40c4 c93b ab60 d73a 671a 25bc 5117 a53b
000002b0: fe1c 803b edc0 483c 8ae1 883b a6cd 63bc
000002c0: 51a9 153c 5228 273c 6ddc aabc 1a32 59bc
000002d0: af1c 683c 5cde 37bc f6c3 8d3c 01d8 713c
000002e0: eac2 a23b 1836 c5b9 45a3 493c 8ad1 b03c
000002f0: a0c1 723b a3c7 a9bb daa7 88bc 8f55 25bb
00000300: b972 dbbb c838 cb3b 4089 823b 848f 8d3c
00000310: 90f8 e4ba a9b1 b53b 5ce6 683b b40c f03b
00000320: 2d1d 203c 9f03 163c 709b e53b 4109 31bc
00000330: c0cc 0bbc 5f2f aebb 1874 943c abb7 443c
00000340: 7d8c 80bc 68eb 2fbc 6b35 2f3a f82a 72bb
00000350: 1614 de3a b991 efbb 718d dbba 3293 aebb
00000360: b79e 0b3b ff5f 8e3b 3af7 983c 29d2 4b3c
00000370: 3f8d 2e3c d7b7 cc3a 3638 c6ba 15fd 02bc
00000380: 4574 a5bc 25bf 143b 1384 d8ba ff2c 033c
00000390: e62c 93bc eb47 ae3c 447c 10bc bb49 13bc
000003a0: d8e8 4d3c e88c a1bc 0722 293b dade 133b
000003b0: ff4c b73b 83d3 4b3c be70 b9bb 726e 2a3b
000003c0: 56da 363b bde5 ff3b 5b74 b2bb 1b68 cf39
000003d0: 7483 11bb 4669 393c d9f3 e0bc e94c a4bc
000003e0: 6096 4dbc 39b7 dd3b cbea 003c 760c 953b
000003f0: 91e1 e5bb 8b07 26bc 158b a4bc 4269 6abc

hidden_features_gamma.0.bias f4 [50]
-0.0024968279 -0.0009311118 0.00021853585 0.00020307463 -0.00051686534 0.00054079125 -0.00031578416 0.00024620906
6.538614e-05 -0.0004158864 0.00023788493 0.00034502902 -8.65117e-05 0.00016655734 -0.0002358983 0.0012506441
0.001105753 2.5063357e-05 -2.2274386e-05 6.286449e-05 -0.0015057456 0.00014769143 7.142303e-05 -0.00011796516
-0.00013172878 0.00021130299 0.001118404 -0.0012499281 0.00033925244 0.00014971456 -0.0012624456 -0.00021378713
0.00011362268 -0.00023796472 -0.00011843051 -1.6965176e-05 -3.3276865e-05 0.00021166267 -3.6293586e-05 0.00026377186
8.435126e-07 -0.0004583558 0.0011454374 -7.281511e-06 0.0001953242 0.0012503999 -0.0006057575 -4.8131675e-05
0.00028915153 0.00029935385
00000000: d2a1 23bb db15 74ba c526 6539 6ef0 5439
00000010: 3f7e 07ba e3c3 0d3a d58f a5b9 9f15 8139
00000020: eb1f 8938 540b dab9 c070 7939 03e5 b439
00000030: 9e6d b5b8 e5a5 2e39 785b 77b9 a7ec a33a
00000040: eaee 903a 263f d237 e1d9 bab7 1ed6 8338
00000050: 705c c5ba 9edd 1a39 f2c8 9538 1064 f7b8
00000060: ad20 0ab9 3791 5d39 6997 923a a1d4 a3ba
00000070: b1dd b139 b2fc 1c39 a578 a5ba 0c2c 60b9
00000080: b648 ee38 2b86 79b9 e55d f8b8 7050 8eb7
00000090: c392 0bb8 c4f1 5d39 f139 18b8 dc4a 8a39
000000a0: bf6d 6235 794f f0b9 8022 963a b453 f4b6
000000b0: f1cf 4c39 75e4 a33a b3cb 1eba fee0 49b8
000000c0: 4399 9739 98f2 9c39

hidden_features_gamma.2.weight f4 [50, 50]
-0.01904072 0.014643022 -0.0042086276 0.023449767 -0.014476883 0.004209509 -0.008078952 0.0072729313
0.0047611203 -0.005556284 0.0057229144 -0.007820658 0.023078507 -0.007943341 -0.014976676 -0.010809095
0.0027226598 0.005257706 0.0011040141 -0.00025193466 -0.00068534777 -0.00528796 0.0038491425 -0.0041850605
-0.002879972 0.005540388 0.01618907 0.006063377 -0.015026734 -0.0072067375 0.0019877392 -0.015158574
0.0032842539 -0.017432274 -0.0035567007 0.0020459709 -0.010488221 -0.0020777336 0.01349075 -0.0024873829
0.00830149 -0.015719933 0.00035189415 0.0020285926 -0.011333137 0.009679394 -0.0011354471 0.006252589
0.0021069439 -0.0032248567 -0.0037442264 0.0016873637 0.00017883276 -0.0120724 -0.0012767692 -0.002961115
0.010749127 -0.0030199378 0.018746577 8.4202e-05 0.00032288444 0.0030616026 -0.009491335 0.016593564
-0.0115815895 -0.01602099 0.007992457 -0.025075408 0.0107093435 0.011687455 0.0055662175 0.006535148
-0.003830391 0.02046928 0.0022965006 -0.010064878 0.0003753332 -0.00524517 0.0009665492 -0.0130839
-0.0034887628 0.0010728252 0.0049084043 0.005003291 -0.0032161043 -0.012041504 0.00014188509 -0.005371374
-9.072444e-05 -0.010678157 -0.0144161545 -0.016274622 0.0065911617 -0.010035853 -0.0080400305 -0.009310644
0.0010128823 -0.010107983 0.0077822777 0.010632737 0.0026430667 -0.0033702382 -0.0031109145 0.008184758
0.0025893757 -0.0048296517 -0.0020188214 0.0049618734 -0.0019385071 0.004656305 -0.007442458 -0.014443801
-0.019266706 0.00035693526 0.0025948193 0.0005545858 -0.0049639535 0.008680085 -0.0021259275 0.0022835939
0.011832602 0.0019364728 -0.018404284 -0.0067374785 -0.009148467 -0.0018139114 -0.020290332 -0.005379367
0.0019854761 -0.0045720553 0.024769336 0.00094074616 -0.011866862 -0.013537304 -0.006235055 0.005948684
-0.0037309104 0.0016372534 0.0048460145 -0.022611026 -0.005710692 -0.0047831335 -0.015013168 0.010598819
0.00013896427 -0.006949046 0.006348258 0.001827571 0.0037421922 0.0026423102 -0.014606147 -0.00042148953
0.006798996 -0.0016858623 -0.010601724 -0.020079091 0.0019583115 -0.0017482186 -0.012914611 -0.005528878
0.009483299 0.017504767 0.015970664 0.018678995 0.009074732 -0.0030752693 -0.016393753 0.001204669
0.0020755022 -0.007326655 -0.025799334 -0.018208269 0.0035354453 0.0051692408 0.0107667055 0.004330198
0.0012239 -0.0041718394 0.01211771 0.013781768 -0.012488192 -0.00028152496 0.0016712105 0.012313705
0.0022362857 -0.0040646493 0.0034394928 0.0052769626 0.0017375153 -0.0019819774 0.024333382 0.004297836
-0.0015196224 0.022494543 0.010314704 0.010135494 -0.01874536 -0.008690201 -0.007824517 -0.005389977
0.007820861 0.00093758415 0.011518398 0.0009112907 0.011488005 -0.019653695 -0.0010502167 -0.007688176
-0.0017383297 -0.00846282 0.001429978 -0.006854738 0.009995782 0.0044286316 -0.007488885 -0.0037494637
-0.0022880912 -0.0023367065 0.019178472 -0.011422067 0.008127708 0.010144404 -0.0028926427 0.0019007699
0.0037064329 -0.01092711 0.003821997 -0.01491841 -0.014748346 -0.004191986 -0.0043127295 0.0032917918
-0.002931461 0.0085173 -0.003226435 0.012344799 -0.020692293 -0.0029492967 0.004545167 -0.014353478
-0.016955301 -0.0004991688 0.022021642 0.001987454 0.005906885 -0.015804661 -0.0021320144 -0.006177281
-0.0022389144 0.0022945087 -0.0060163476 -0.0073156 0.00017836496 0.011059881 -0.004030581 -0.00060659955
00000000: 49fb 9bbc 49e9 6f3c 87e8 89bb ba19 c03c
00000010: 7330 6dbc ecef 893b 955d 04bc c551 ee3b
00000020: 2c03 9c3b 7d11 b6bb 4987 bb3b 3822 00bc
00000030: 230f bd3c c924 02bc bb60 75bc a118 31bc
00000040: a76e 323b d648 ac3b 91b4 903a 1916 84b9
00000050: e9a8 33ba a046 adbb e541 7c3b d522 89bb
00000060: eabd 3cbb 258c b53b f19e 843c 4baf c63b
00000070: b132 76bc 7f26 ecbb bb44 023b ab5b 78bc
00000080: a33c 573b 21ce 8ebc 8917 69bb b215 063b
00000090: cad6 2bbc 962a 08bb 4f08 5d3c 5c03 23bb
000000a0: f902 083c 17c7 80bc 6f7e b839 23f2 043b
000000b0: 9fae 39bc 5296 1e3c 48d3 94ba 85e2 cc3b
000000c0: a714 0a3b 1e58 53bb b261 75bb 882a dd3a
000000d0: 0e85 3b39 51cb 45bc 4459 a7ba 440f 42bb
000000e0: 1b1d 303c 26ea 45bb 6c92 993c 9b95 b038
000000f0: d148 a939 2ba5 483b 8b81 1bbc 3aef 873c
00000100: b5c0 3dbc 743e 83bc cbf2 023c f16a cdbc
00000110: 3e76 2f3c bd7c 3f3c d164 b63b cb24 d63b
00000120: 4c07 7bbb 31af a73c e380 163b 28e7 24bc
00000130: 5fc8 c439 addf abbb 0560 7d3a db5d 56bc
00000140: baa3 64bb 0a9e 8c3a aed6 a03b a6f2 a33b
00000150: 47c5 52bb ba49 45bc fdc6 1439 5a02 b0bb
00000160: 5043 beb8 70f3 2ebc bc31 6cbc 5b52 85bc
00000170: acfa d73b 6b6d 24bc 55ba 03bc ac8b 18bc
00000180: b1c2 843a f49b 25bc 7a02 ff3b ee34 2e3c
00000190: 4d37 2d3b 37df 5cbb 7ce0 4bbb 5d19 063c
000001a0: 84b2 293b 0e42 9ebb 344e 04bb 3697 a23b
000001b0: 8115 feba eb93 983b dddf f3bb b1a5 6cbc
000001c0: 36d5 9dbc 0a23 bb39 d80d 2a3b 9f61 113a
000001d0: a9a8 a2bb ea36 0e3c 2553 0bbb 59a8 153b
000001e0: 88dd 413c 3fd1 fd3a 95c4 96bc 11c6 dcbb
000001f0: 74e3 15bc c4c0 edba e937 a6bc 6745 b0bb
00000200: c31e 023b 2ed1 95bb 10e9 ca3c 689c 763a
00000210: 3a6d 42bc 91cb 5dbc 6f4f ccbb 2eed c23b
00000220: 4a82 74bb 1c99 d63a 51cb 9e3b c23a b9bc
00000230: c220 bbbb d5bb 9cbb caf9 75bc aba6 2d3c
00000240: f0b6 1139 d3b4 e3bb 0c05 d03b 1b8b ef3a
00000250: 913f 753b 9c2a 2d3b 9f4e 6fbc 5efb dcb9
00000260: 1dca de3b 27f8 dcba dab2 2dbc e87c a4bc
00000270: 0457 003b 7b24 e5ba ce97 53bc 972b b5bb
00000280: d75f 1b3c 2866 8f3c e9d4 823c b104 993c
00000290: 2fae 143c 758a 49bb 314c 86bc fce5 9d3a
000002a0: 2605 083b 7014 f0bb 2059 d3bc 8229 95bc
000002b0: eeb2 673b bc62 a93b d666 303c 55e4 8d3b
000002c0: 456b a03a edb3 88bb 5c89 463c edcc 613c
000002d0: 469b 4cbc a499 93b9 850c db3a 6cbf 493c
000002e0: a68e 123b c030 85bb 1d69 613b 5fea ac3b
000002f0: 57bd e33a 10e4 01bb cd56 c73c ddd4 8c3b
00000300: 112e c7ba 7a46 b83c 01ff 283c 580f 263c
00000310: df8f 99bc 5861 0ebc 6732 00bc 679e b0bb
00000320: 1223 003c 35c8 753a aab7 3c3c afe3 6e3a
00000330: 2f38 3c3c c900 a1bc 6da7 89ba 18ed fbbb
00000340: aad8 e3ba a4a7 0abc 196e bb3a b69d e0bb
00000350: 59c5 233c 0e1e 913b 5265 f5bb 90b9 75bb
00000360: cdf3 15bb 6e23 19bb 2c1c 9d3c 9f23 3bbc
00000370: 142a 053c b734 263c 7e92 3dbb 4123 f93a
00000380: a0e7 723b 9f07 33bc 787a 7a3b 596c 74bc
00000390: 0ca3 71bc ed5c 89bb cc51 8dbb 1abb 573b
000003a0: c11d 40bb 258c 0b3c 9972 53bb d741 4a3c
000003b0: e282 a9bc fd48 41bb a0ef 943b da2a 6bbc
000003c0: d8e5 8abc a7da 02ba bb66 b43c f23f 023b
000003d0: 8b8e c13b c778 81bc 44b9 0bbb ca6a cabb
000003e0: c0ba 12bb 785f 163b c824 c5bb b3b7 efbb
000003f0: 7b07 3b39 8134 353c f712 84bb 3504 1fba

hidden_features_gamma.2.bias f4 [50]
-0.0039599347 -0.0005648425 -0.053287525 0.0 -0.011288988 0.0 -0.00522002 -0.002133538
-0.015613355 -0.0004592966 0.0012029845 -0.0047021965 -0.0024184315 0.0066619334 -0.01823309 0.00027307053
-0.0003818334 -0.00426269 -0.0024437697 -0.004104702 0.0 0.0025393087 0.0 -0.0061915214
-0.0108110225 -0.0005757602 -0.016520327 0.0 -0.007018711 -0.0018164769 -0.00074469607 -0.013018154
0.0012227517 0.00019683027 -0.00038563207 -0.012242842 -0.010930172 -0.00044460144 -0.051032018 0.012920838
-0.025510855 0.002528322 -0.0018376159 -0.0022274973 -0.01197587 -0.00016068976 -0.0023637244 4.171029e-05
-0.0037964825 -0.0017739665
00000000: 57c2 81bb f011 14ba 0544 5abd 0000 0000
00000010: 73f5 38bc 0000 0000 b40c abbb d4d2 0bbb
00000020: 28cf 7fbc bfcd f0b9 76ad 9d3a e214 9abb
00000030: 8c7e 1ebb 594c da3b 905d 95bc e82a 8f39
00000040: d030 c8b9 09ae 8bbb a727 20bb bc80 86bb
00000050: 0000 0000 886a 263b 0000 0000 3fe2 cabb
00000060: b720 31bc 9dee 16ba a355 87bc 0000 0000
00000070: 37fd e5bb da16 eeba b537 43ba 184a 55bc
00000080: bd44 a03a 3964 4e39 a92e cab9 3496 48bc
00000090: 7714 33bc 6519 e9b9 f306 51bd ecb1 533c
000000a0: 24fc d0bc 34b2 253b 28dc f0ba 34fb 11bb
000000b0: 7036 44bc d47e 28b9 b7e8 1abb 15f2 2e38
000000c0: 68ce 78bb 7084 e8ba

hidden_features_delta.0.weight f4 [50, 25]
0.051398728 0.036944583 0.07519422 -0.0035376237 0.10379673 0.038406752 0.065808885 -0.038676515
0.029396264 0.026056845 0.0012612832 0.009327048 0.03890077 -0.028594092 0.029776271 0.061014194
0.07387696 0.10320394 -0.0018818007 0.014187492 0.025915226 -0.0044790944 0.04399783 0.047785316
0.074553244 -0.006207391 -0.0035698176 0.0072371652 0.011289799 0.009011397 -0.0020059843 -0.02059743
0.013221334 -0.017587421 0.044937655 -0.021319136 0.009307 -0.008807927 -0.0197473 0.015653094
-0.018647188 0.016003609 0.0017681518 0.034845635 0.0114236865 -0.030083073 0.015842816 -0.011823425
0.03495948 -0.015042936 -0.007983242 -0.00088787964 -0.018426795 -0.015267913 0.005427661 -0.010369431
0.0041831294 0.0001702409 -0.006594122 0.0007402635 0.0035516124 0.0029444313 -0.011688936 0.00086932036
-0.0019069695 -0.013339068 -0.0019853525 0.0047796355 -0.014419515 0.0042598024 0.0032547337 -0.010883846
-0.010805961 -0.013388555 0.011365795 -0.0010107273 -0.0017533507 -0.0070091784 0.0131007545 0.003927383
0.0052385214 -0.015489489 -0.012410039 -0.0078798095 -0.008084373 -0.0029259797 -0.0012627047 -0.0037219643
-0.009774557 -0.001107327 -0.00962261 0.002402172 -0.0062155267 -0.00024381347 -0.01176791 -0.013882461
-0.0075120362 -0.010742257 0.007151555 -0.005448155 0.01476315 -0.007715762 -0.021735467 0.007848471
0.0036937678 -0.0017082054 -0.021333652 -0.0057812906 0.010137671 0.014376065 -0.0023129461 0.00097286305
0.028718732 -0.0068157883 -0.012669248 -0.016992845 -0.030360444 -0.002023323 0.011513813 -0.009093216
-0.008374106 0.010494712 0.0011581982 1.5431797e-05 0.007886411 -0.032198388 -0.008828271 -0.019512009
-0.009355452 -0.021783855 -0.011824978 -0.026724223 -0.001885214 -0.0032833302 -0.018767685 -0.037559852
-0.009676154 -0.0056516523 0.010983308 -0.0031458517 -0.057121716 -0.03461824 -0.04216705 -0.011273799
-0.008547563 0.025286965 -0.0022640952 -0.006341157 -0.009360145 0.012620553 -0.022755014 0.00046625495
-0.010543466 0.0075909053 -0.003275237 -0.0062333504 -0.0041099447 0.002315076 -0.013319679 -0.016251178
0.00034172856 0.009050347 -0.011424749 0.0013654244 0.0035541896 -0.0134604545 -0.014667335 -0.023934886
-0.0015112018 0.00029809665 -0.0007565432 -0.0011049513 0.009053017 0.0081541315 -0.017953811 -0.007997407
0.013363197 -0.044640213 0.008625151 -0.05120768 -0.050999884 0.073802 0.0026813294 0.037635203
0.08013453 -0.09271561 0.061603747 0.004232872 0.026896207 0.0064024325 -0.032889523 0.056123503
-0.025283234 -0.04678262 -0.05196978 0.024996443 -0.05789922 0.012695175 -0.038933624 0.07968778
-0.020093273 0.010636224 -0.0011580056 0.006957532 -0.006155025 0.023839835 -0.021631535 0.015945898
0.018300004 0.0055732084 -0.00014550817 0.002666931 -0.021585118 -0.0050385115 -0.023359671 -0.0054654535
-0.004304018 0.0073726973 -0.008744401 0.011503667 0.004002896 0.007250443 -0.0068203523 0.006994988
-0.0253719 0.0018965779 -0.018927958 -0.018505268 0.014184526 -0.007022776 0.039923757 -0.043892507
-0.02275487 0.019822625 0.019374814 -0.015813654 -0.023854552 0.03168097 0.026477585 3.961013e-05
-0.029037548 -0.07860834 0.03401952 0.001050305 -0.011937978 0.019576209 -0.0015581129 -0.009777193
-0.0010963507 0.027866589 -0.03504533 -0.021987103 -0.032559697 -0.011850418 -0.02776469 -0.0063494258
00000000: 7987 523d 3453 173d 6dff 993d 7ad7 67bb
00000010: 6193 d43d 6650 1d3d cfc6 863d 446b 1ebd
00000020: 6fd0 f03c 2a75 d53c a451 a53a 7ad0 183c
00000030: 6a56 1f3d 283e eabc 5eed f33c 05ea 793d
00000040: ce4c 973d 965c d33d c1a6 f6ba a872 683c
00000050: 2b4c d43c 5ec5 92bb 1237 343d 89ba 433d
00000060: 5faf 983d 5f67 cbbb 9af3 69bb be25 ed3b
00000070: d9f8 383c 8aa4 133c d576 03bb f1bb a8bc
00000080: 4b9e 583c 7f13 90bc 8c10 383d 78a5 aebc
00000090: 637c 183c 204f 10bc 17c5 a1bc eb3a 803c
000000a0: fdc1 98bc 001a 833c 54c1 e73a 4cba 0e3d
000000b0: 6a2a 3b3c c770 f6bc cbc8 813c 0ab7 41bc
000000c0: ac31 0f3d a676 76bc 25cc 02bc 98c0 68ba
000000d0: caf3 96bc 4526 7abc 85da b13b 8ce4 29bc
000000e0: a212 893b b282 3239 8113 d8bb 3e0e 423a
000000f0: 2bc2 683b 5cf7 403b f382 3fbc 1ae3 633a
00000100: 47f3 f9ba 1b8c 5abc b01c 02bb 7d9e 9c3b
00000110: d43f 6cbc d095 8b3b 5f4d 553b 2952 32bc
00000120: 7c0b 31bc ab5b 5bbc 9937 3a3c 617a 84ba
00000130: b0d0 e5ba 40ad e5bb 8ca4 563c 47b1 803b
00000140: e7a7 ab3b a0c7 7dbc 7a53 4bbc 511a 01bc
00000150: 5174 04bc cbc1 3fbb 5781 a5ba 33ec 73bb
00000160: 7725 20bc bb23 91ba 27a8 1dbc c26d 1d3b
00000170: 9eab cbbb 2ea8 7fb9 31ce 40bc 4373 63bc
00000180: 8727 f6bb 4b00 30bc 9757 ea3b 7086 b2bb
00000190: 24e1 713c 81d4 fcbb 940e b2bc e096 003c
000001a0: 2413 723b dde5 dfba e9c3 aebc fb70 bdbb
000001b0: 7918 263c 9689 6b3c cc94 17bb bc07 7f3a
000001c0: 8c43 eb3c fa56 dfbb ad92 4fbc 9434 8bbc
000001d0: 77b6 f8bc ba99 04bb 6fa4 3c3c b6fb 14bc
000001e0: 8c33 09bc 03f2 2b3c afce 973a 8873 8137
000001f0: 0136 013c 75e2 03bd 74a4 10bc a6d7 9fbc
00000200: 9c47 19bc 0e74 b2bc 8dbd 41bc c2ec dabc
00000210: 4919 f7ba 242d 57bb b0be 99bc 5cd8 19bd
00000220: bb88 1ebc 7f31 b9bb 55f3 333c a22a 4ebb
00000230: 76f8 69bd dbcb 0dbd 5bb7 2cbd beb5 38bc
00000240: 140b 0cbc 9c26 cf3c 3761 14bb 7bc9 cfbb
00000250: 4b5b 19bc 70c6 4e3c b968 babc ae73 f439
00000260: 80be 2cbc 21bd f83b 5ca5 56bb 2241 ccbb
00000270: b7ac 86bb 88b8 173b c83a 5abc 3121 85bc
00000280: 082a b339 e847 143c df2e 3bbc 0af8 b23a
00000290: 68ed 683b 3d89 5cbc 434f 70bc 1813 c4bc
000002a0: 8513 c6ba db49 9c39 c152 46ba 03d4 90ba
000002b0: 1b53 143c e898 053c df13 93bc 8e07 03bc
000002c0: 50f1 5a3c a8d8 36bd 8150 0d3c 25bf 51bd
000002d0: 41e5 50bd 8125 973d 3eb9 2f3b 5f27 1a3d
000002e0: 931d a43d afe1 bdbd 3654 7c3d e7b3 8a3b
000002f0: 6f55 dc3c 7fcb d13b 2ab7 06bd c2e1 653d
00000300: c91e cfbc 229f 3fbd 44de 54bd 57c5 cc3c
00000310: bc27 6dbd 6cff 4f3c dd78 1fbd 5933 a33d
00000320: a69a a4bc 8f43 2e3c 38c8 97ba 02fc e33b
00000330: 18b0 c9bb c24b c33c 9e34 b1bc f9a0 823c
00000340: e4e9 953c 769f b63b 8d93 18b9 adc7 2e3b
00000350: 46d3 b0bc 191a a5bb c85c bfbc 8c17 b3bb
00000360: b808 8dbb ab96 f13b ad44 0fbc e079 3c3c
00000370: ba2a 833b 2095 ed3b 437d dfbb 3636 e53b
00000380: bbd8 cfbc 9896 f83a ce0e 9bbc 5c98 97bc
00000390: 3766 683c 511f e6bb 1887 233d a1c8 33bd
000003a0: 6c68 babc 0f63 a23c eeb7 9e3c a38b 81bc
000003b0: 9f6a c3bc e8c3 013d 85e7 d83c 0e23 2638
000003c0: 27e0 edbc 69fd a0bd 0d58 0b3d 63aa 893a
000003d0: 8297 43bc 495e a03c 9839 ccba 8530 20bc
000003e0: 6db3 8fba 7948 e43c b18b 0fbd 4c1e b4bc
000003f0: 515d 05bd 4128 42bc c672 e3bc d80e d0bb

hidden_features_delta.0.bias f4 [50]
0.07720398 0.00586694 -0.008184181 -0.006779409 -0.001487902 -0.05271968 -0.020215003 -0.003828941
0.0031251356 0.018944241 -0.04402282 0.059168477 0.0011048488 0.00981892 -0.02764416 -0.026295861
0.013808836 -0.015048995 0.059472933 -0.025608463 0.0019957086 -0.022309786 0.0131812375 0.030401241
-0.010777045 0.0039724032 0.0015162795 0.097371936 0.017733479 0.025788145 0.004746723 -0.013900015
0.0 -0.024330078 0.013568832 -0.008720836 -0.025161613 -0.008386455 -0.013997076 0.08350994
-0.047251627 0.0070340605 0.06576831 -0.02698599 0.0074398257 0.028080098 -0.020044915 0.1434781
0.07792682 0.028883962
00000000: 1f1d 9e3d 763f c03b f116 06bc ce25 debb
00000010: b505 c3ba 97f0 57bd ef99 a5bc f8ee 7abb
00000020: 13cf 4c3b f430 9b3c 4651 34bd a55a 723d
00000030: 93d0 903a 89df 203c 0176 e2bc 6b6a d7bc
00000040: 753e 623c 0f90 76bc e499 733d d7c8 d1bc
00000050: 6fca 023b 03c3 b6bc 1ef6 573c 060c f93c
00000060: 3492 30bc ef2a 823b e6bd c63a f06a c73d
00000070: cd45 913c a941 d33c 668a 9b3b e3bc 63bc
00000080: 0000 0000 df4f c7bc ce4f 5e3c d6e1 0ebc
00000090: ba1f cebc 5767 09bc fe53 65bc 4207 ab3d
000000a0: ec8a 41bd fa7d e63b 89b1 863d b911 ddbc
000000b0: c8c9 f33b 3c08 e63c 3c35 a4bc eceb 123e
000000c0: 1998 9f3d 0f9e ec3c

hidden_features_delta.2.weight f4 [50, 50]
-0.0035287447 0.013297418 0.0052645192 -0.0005083297 -0.01956718 0.010714518 -0.025064351 0.017065106
-0.025765143 -0.013047562 0.0028811735 -0.005997482 -0.005417605 -0.00894109 0.0026410825 0.010814884
0.0031750186 0.0051228018 0.008934449 -0.0013098094 -0.0083253635 -0.0028744368 0.014382406 -0.013153064
-0.006167636 0.011095097 0.009548401 -0.008530372 -0.0017104197 0.0014667584 0.011755816 -0.0049297553
-0.013118167 -6.5070795e-05 0.0035867558 -0.01541276 0.013782945 -0.005952493 0.0016430244 0.0132782515
-0.01697732 0.017783199 -0.012050995 8.888032e-05 -0.0109733725 0.0051239114 0.009872843 -0.017828701
0.015302012 -0.000978677 0.004833745 -0.008285336 -0.0002370874 -0.0040216683 -0.00039039223 -0.016348368
-0.010793679 0.0085136965 0.0074594156 -0.009199735 -0.02113861 0.011164734 0.0024163993 0.016316315
0.0014087011 -0.013319275 0.006353395 -0.0040172306 0.0057669966 -0.0032049138 -0.0027446589 0.0031036586
0.009333471 0.0018756784 -0.0010016174 0.0035301594 0.013443115 -0.0019289469 -0.0093794195 0.002916455
-0.006272369 -0.022160962 -0.0054928195 -0.017402522 0.005133833 0.020766854 -0.012739278 -0.0036086873
-0.0019722811 0.0061864834 -0.010961864 0.0016365476 -0.006192002 -0.0022393372 0.02127582 -0.0005841781
-0.01799829 -0.0022462734 -0.004573455 0.009308156 -0.021181649 -0.019524263 -0.009966124 0.011967428
-0.008068538 -0.0110752275 0.0036087928 -0.0057663736 0.0010383734 -0.01662049 -0.0012875914 -0.0075066127
0.008936432 0.0047266483 0.022030558 0.010041485 -0.007889139 0.018074248 0.00832823 -0.008100159
0.0057836147 0.0208118 -0.009261155 -0.0021188618 0.0064515783 -0.020918384 -0.012630679 0.00016588606
-0.015736412 -0.006665887 0.0032091094 -0.00039737328 -0.005675904 -0.005946412 -0.00021609971 -0.017111056
-0.022726463 0.0024978132 -0.0068874815 -0.013190289 -0.0043979017 0.0010872831 -0.011239108 -0.00029511834
0.00488478 -0.00095347443 0.01906176 -0.007826084 -0.015845062 -0.013961045 -0.020544607 -0.024948163
0.0022949828 0.014955907 -0.0028992984 0.006610072 0.012406082 -0.0041287974 0.008000639 -0.007632634
0.00094450277 -0.005639512 0.009628468 0.014498546 -0.0014683314 0.0022145975 -0.008078414 -0.004747607
-0.013212337 -0.01601063 -0.0021572013 -0.0034231148 0.013219299 0.0013499295 -0.004753495 0.00043579738
-0.0045032967 -0.024417317 0.0028502753 0.013458877 -0.0063450593 -0.009962669 0.009042332 -0.014091405
-0.007905769 -0.009450941 -0.0069798944 -0.014922036 0.00053863914 -0.010911411 -0.000514067 0.0065356474
-0.01933367 -0.0017220059 -0.019682115 0.021182185 0.018030435 0.009387423 -0.013330993 -0.007391201
-0.0024608476 0.00020285632 -0.0026064455 -0.012962789 -0.008299323 0.0043377723 0.00035679384 -0.018238964
0.004502645 -0.010417144 -0.019707078 -0.007208565 -0.012607926 0.0035740512 -0.011123277 0.005016605
-0.007536544 0.0202698 -0.019388031 -0.013766821 0.0018963056 -0.0010212412 0.006454061 -0.00041869175
-0.0032653015 0.0004144406 0.009566669 0.0076685054 -0.005781899 -0.0075015817 -0.01787021 -0.0047364393
-0.00038158664 0.004170586 -0.002516349 -0.0060816137 0.003969919 -0.0010972341 -0.0058121635 -0.0067868493
-0.013379636 0.009271641 -0.019064039 -0.0016002232 0.0013556132 0.005699049 0.013189366 0.0018229553
-0.0038040641 0.007158312 0.24015623 -0.0044619604 -0.0033308484 -0.011082242 -0.0035565414 0.011804605
00000000: 8342 67bb 6add 593c fd81 ac3b 6e41 05ba
00000010: 5a4b a0bc f28b 2f3c c153 cdbc 1fcc 8b3c
00000020: 6c11 d3bc 71c5 55bc 12d2 3c3b 8786 c4bb
00000030: 2a86 b1bb a67d 12bc 0316 2d3b e930 313c
00000040: f913 503b 2ddd a73b cc61 123c e9ad abba
00000050: 1b67 08bc 0c61 3cbb 2fa4 6b3c f37f 57bc
00000060: e119 cabb 36c8 353c e670 1c3c f9c2 0bbc
00000070: 2930 e0ba 3f40 c03a 779b 403c c989 a1bb
00000080: 95ed 56bc 9e76 88b8 c70f 6b3b cd85 7cbc
00000090: ddd1 613c 210d c3bb c05a d73a 068d 593c
000000a0: 0514 8bbc 12ae 913c 8971 45bc 4265 ba38
000000b0: a9c9 33bc 7ce6 a73b b4c1 213c 7f0d 92bc
000000c0: 4ab5 7a3c f346 80ba 6464 9e3b 38bf 07bc
000000d0: aa9a 78b9 33c8 83bb 8fad ccb9 03ed 85bc
000000e0: f9d7 30bc 087d 0b3c 1d6e f43b 7cba 16bc
000000f0: e12a adbc 4aec 363c 745c 1e3b cba9 853c
00000100: 2aa4 b83a 1739 5abc 2430 d03b f9a2 83bb
00000110: 13f9 bc3b 8809 52bb bcdf 33bb c066 4b3b
00000120: 6aeb 183c 53d9 f53a b448 83ba 3f5a 673b
00000130: 8340 5c3c b8d4 fcba 23ac 19bc ff21 3f3b
00000140: 7288 cdbb e88a b5bc 1cfd b3bb bc8f 8ebc
00000150: b639 a83b 401f aa3c 68b8 50bc ba7f 6cbb
00000160: 6341 01bb fcb7 ca3b 6499 33bc 6d81 d63a
00000170: 47e6 cabb d8c1 12bb a14a ae3c 8723 19ba
00000180: 2671 93bc 3736 13bb ecdc 95bb 3c81 183c
00000190: 2385 adbc 59f1 9fbc f448 23bc 0813 443c
000001a0: e731 04bc df74 35bc 7f81 6c3b d9f3 bcbb
000001b0: 081a 883a b227 88bc 66c4 a8ba 08fa f5bb
000001c0: 1d6a 123c 00e2 9a3b 6e79 b43c 0a85 243c
000001d0: 7241 01bc 7210 943c 2173 083c 87b6 04bc
000001e0: 7a84 bd3b 827d aa3c 19bc 17bc 9adc 0abb
000001f0: c367 d33b 085d abbc e8f0 4ebc b3f1 2d39
00000200: a6e9 80bc 836d dabb ec4f 523b 8a56 d0b9
00000210: effc b9bb 1fda c2bb d398 62b9 7c2c 8cbc
00000220: d92c babc 5ab2 233b 62b0 e1bb 151c 58bc
00000230: 461c 90bb 2b83 8e3a 3c24 38bc 1dba 9ab9
00000240: 8110 a03b 96f2 79ba 6827 9c3c fa38 00bc
00000250: 81cd 81bc debc 64bc 2a4d a8bc 1760 ccbc
00000260: 6c67 163b 9f09 753c 2802 3ebb 4e99 d83b
00000270: e142 4b3c dd4a 87bb 1d15 033c 2d1b fabb
00000280: 8298 773a a8cb b8bb b9c0 1d3c 4f8b 6d3c
00000290: 0775 c0ba c822 113b 535b 04bc d091 9bbb
000002a0: 8f78 58bc ba28 83bc d55f 0dbb 5656 60bb
000002b0: c295 583c 1ef0 b03a 35c3 9bbb bc7b e439
000002c0: 6490 93bb d306 c8bc afcb 3a3b 9f82 5c3c
000002d0: 37ea cfbb 763a 23bc 4a26 143c a3df 66bc
000002e0: 3387 01bc 1fd8 1abc 99b7 e4bb 8e7b 74bc
000002f0: 7633 0d3a c6c5 32bc 74c2 06ba fc28 d63b
00000300: a561 9ebc eeb4 e1ba 633c a1bc 4386 ad3c
00000310: 90b4 933c b5cd 193c 3d6a 5abc e331 f2bb
00000320: 2c46 21bb d4b5 5439 e6d0 2abb e161 54bc
00000330: e2f9 07bc df23 8e3b 0f10 bb39 e169 95bc
00000340: ed8a 933b abac 2abc bd70 a1bc d335 ecbb
00000350: 7991 4ebc a13a 6a3b 683e 36bc 5562 a43b
00000360: 1df5 f6bb da0c a63c a6d3 9ebc 3b8e 61bc
00000370: 758d f83a 2bdb 85ba 967c d33b db83 dbb9
00000380: abfe 55bb 4749 d939 85bd 1c3c 1648 fb3b
00000390: 1676 bdbb d4cf f5bb 8c64 92bc 2234 9bbb
000003a0: b10f c8b9 69a9 883b 55e9 24bb 4648 c7bb
000003b0: 1816 823b 11d1 8fba f673 bebb 3864 debb
000003c0: 4336 5bbc 15e8 173c 302c 9cbc 95be d1ba
000003d0: d5ae b13a 17bf ba3b 3618 583c 3bf0 ee3a
000003e0: 9b4d 79bb 4690 ea3b 84eb 753e a335 92bb
000003f0: 5d4a 5abb 4b92 35bc dd14 69bb 1a68 413c

hidden_features_delta.2.bias f4 [50]
-0.120572574 -0.0331082 -0.21898484 -0.19988066 -0.24165621 0.67674905 -0.06345722 -0.034639906
-0.27110112 -0.027883114 0.0 -1.0031122 -0.0397451 -0.88577646 -0.32315922 -0.35420853
-0.8047049 -0.6907073 -0.0019125356 -0.06154432 -0.033344213 -0.42097086 -0.048753303 -0.21940805
0.10681818 -0.044330046 -0.3891014 -0.19838272 -0.008747214 -0.00024001139 -0.06850427 0.45609415
-0.002173415 0.0009645113 -0.0143353 -0.54349166 -0.123038396 -0.023538563 -0.21131368 -0.00959479
0.28760135 -0.20713405 -0.833871 -0.3457967 0.85108787 -0.22085112 -0.9227947 -0.444818
0.9938106 -0.008841152
00000000: c1ee f6bd 779c 07bd 903d 60be 84ad 4cbe
00000010: ba74 77be 6d3f 2d3f dcf5 81bd 93e2 0dbd
00000020: c4cd 8abe 216b e4bc 0000 0000 fb65 80bf
00000030: c2cb 22bd 3fc2 62bf 2075 a5be d25a b5be
00000040: 2401 4ebf 32d2 30bf 0cae faba e615 7cbd
00000050: f193 08bd 7e89 d7be 8bb1 47bd 81ac 60be
00000060: 7dc3 da3d 6c93 35bd 4c38 c7be d724 4bbe
00000070: 7a50 0fbc 91ab 7bb9 f74b 8cbd 2c85 e93e
00000080: da6f 0ebb 42d7 7c3a 9bde 6abc 4522 0bbf
00000090: 8efb fbbd f2d3 c0bc 9d62 58be 7733 1dbc
000000a0: 7c40 933e f31a 54be 9278 55bf 440c b1be
000000b0: e5e0 593f cc26 62be 463c 6cbf 2fbf e3be
000000c0: 5f6a 7e3f 7bda 10bc

hidden_features_psi.0.weight f4 [50, 25]
0.04044118 -0.0018528216 0.043141507 0.004947846 0.04096516 0.008074603 0.058151282 0.09512191
0.036307614 -0.020549662 0.0035898867 0.021641303 0.12713051 0.018175168 0.05869641 0.06626952
0.031094346 0.051250976 -0.040086042 0.008129977 0.0033114064 -0.0012643985 0.0025269222 0.014577788
0.01684579 -0.020571643 -0.0011256987 -0.02158828 -0.01378492 -0.0127743 -0.013004794 -0.004662478
-0.0057980046 -0.0091637 -0.011963591 -0.003287156 -0.006193542 -0.013406994 -0.015272525 0.0037594747
-0.022151655 -0.02711634 -0.035527423 0.00079621654 0.007973632 0.006071361 -0.007794338 -0.012154771
-0.010927804 0.013671411 -0.0014285665 -0.0014535168 0.0055685746 0.005056067 -0.0013333748 -0.008329579
-0.020982074 0.007960726 0.005248381 -0.0012973719 0.0020285225 -0.018198809 -0.014858222 0.0021919825
-0.02066653 -0.011607435 -0.022415522 -0.0077723037 -0.010225164 0.011136208 0.0013791091 0.008992057
-0.0011095301 -0.009219011 0.0028669196 0.030428572 0.02245624 -0.106772326 0.033567145 -0.009480236
-0.055028632 0.087411076 -0.020479975 0.029768053 0.013290898 0.015958197 -0.005047397 0.12205733
0.0036783793 -0.07374388 -0.04883489 -0.05029047 -0.040498357 0.06733451 -0.039235715 -0.017075425
-0.016325362 0.022044025 0.03248452 0.02614463 0.0055780094 -0.0002550193 0.014693122 -0.012197112
-0.00066812284 -0.004856614 0.030191524 0.0050318413 -0.0035641938 0.00831455 0.003705732 0.008302518
0.026208743 0.0048655155 0.011435833 0.016259428 0.021996323 0.0025709993 -0.01766352 -0.0020013428
0.011735978 0.0073735532 0.019591242 -0.010334844 0.005726377 -0.011508816 -0.021971537 -0.009949398
-0.0012969184 -0.012863344 0.012046347 -0.003665256 0.0070143207 -0.007272245 -0.0026180644 -0.01753529
0.0018495009 -0.004020849 0.0056125354 -0.00439988 -0.010347359 0.0026145966 0.006150432 0.0077965274
0.00587545 -0.00021020458 0.004149697 0.009832132 0.0013806543 -0.006633679 -0.0014720003 -0.009815683
-0.020285826 0.030445905 0.006614412 0.013419813 -0.01498493 0.0023616531 -0.0007990625 -0.02688864
0.019071035 0.02474422 0.02262049 -0.028523875 0.012617148 -0.013800143 -0.0032168003 0.0031285363
-0.014076892 -0.010586252 -0.016841503 -0.015408565 0.020886712 -0.026206166 0.026224932 -0.0010004222
-0.007767865 0.0047365692 -0.0029339206 0.010371052 0.015606591 -0.020477746 -0.0141621595 -0.03076102
-0.011847565 0.006212735 -0.021498468 -0.01979439 0.010224356 0.019771036 -0.005726622 0.013224722
0.0053363685 -0.0103261545 0.025910538 -0.012850562 0.016317317 0.0015486819 0.0012738111 -0.005091098
0.0133413905 -0.025270872 -0.0120173665 -0.00061052723 0.0006831493 0.0044486555 0.005104224 -0.011789185
-0.012099405 -0.0023861784 0.0071004196 -0.0055465344 -0.0044361437 0.017558279 0.016266895 -0.0051777014
0.011245107 -0.013043279 -0.00036250625 -0.015441315 -0.008544219 0.013452876 0.00401557 -0.009677275
-0.00032634576 0.09358584 0.06297916 -0.15463534 0.0243943 -0.018157285 0.017340057 -0.021683877
-0.055712637 0.04731994 0.05783281 -0.045785494 0.053179014 0.0074175457 0.013540515 -0.069271125
-0.03694132 -0.014400838 -0.029296877 0.008117996 0.027934462 -0.020749401 -0.051752783 -0.0120433355
-0.023908919 0.031245202 -0.008359617 -0.0033679209 0.028256427 -0.01839715 -0.004892027 0.0022569916
00000000: a7a5 253d 60da f2ba 26b5 303d 8a21 a23b
00000010: 15cb 273d 574b 043c 0a30 6e3d 47cf c23d
00000020: 4bb7 143d c457 a8bc 4e44 6b3b 1a49 b13c
00000030: 802e 023e 17e4 943c a66b 703d 50b8 873d
00000040: 92b9 fe3c 8bec 513d 4331 24bd 9833 053c
00000050: 2e04 593b 2cba a5ba b89a 253b add7 6e3c
00000060: 2f00 8a3c dd85 a8bc 2e8c 93ba e8d9 b0bc
00000070: 25da 61bc 4c4b 51bc 0f12 55bc b3c7 98bb
00000080: 30fd bdbb 5823 16bc f002 44bc 546d 57bb
00000090: 32f3 cabb 02a9 5bbc 9d39 7abc 8561 763b
000000a0: 6377 b5bc 1623 debc 3485 11bd 30b9 503a
000000b0: d6a3 023c 44f2 c63b a567 ffbb ce24 47bc
000000c0: 880a 33bc 0efe 5f3c bd3e bbba ee83 beba
000000d0: 9778 b63b 5dad a53b a2c4 aeba c978 08bc
000000e0: 99e2 abbc b46d 023c 9cfa ab3b 940c aaba
000000f0: f6f0 043b ab15 95bc e66f 73bc 5da7 0f3b
00000100: db4c a9bc 1c2d 3ebc c2a0 b7bc cfae febb
00000110: 7287 27bc a474 363c 39c3 b43a 6c53 133c
00000120: a76d 91ba 560b 17bc eee2 3b3b 5745 f93c
00000130: 26f6 b73c 73ab dabd b47d 093d fe52 1bbc
00000140: b465 61bd 9404 b33d 9fc5 a7bc 22dc f33c
00000150: 11c2 593c c4ba 823c a364 a5bb 32f9 f93d
00000160: f710 713b 0807 97bd 1807 48bd 61fd 4dbd
00000170: 9be1 25bd ade6 893d a1b5 20bd c3e1 8bbc
00000180: c4bc 85bc ac95 b43c 7d0e 053d 432d d63c
00000190: bcc7 b63b 1cb4 85b9 6cbb 703c 65d6 47bc
000001a0: f724 2fba 3b24 9fbb 3754 f73c 25e2 a43b
000001b0: 4095 69bb c039 083c dedb 723b 4907 083c
000001c0: b8b3 d63c e76e 9f3b 5c5d 3b3c 7e32 853c
000001d0: a231 b43c 367e 283b 16b3 90bc f628 03bb
000001e0: 4248 403c d99d f13b d07d a03c 7a53 29bc
000001f0: 55a4 bb3b 798f 3cbc a7fd b3bc cd02 23bc
00000200: 5cfd a9ba c6c0 52bc 0b5e 453c cb34 70bb
00000210: 63d8 e53b 034c eebb d593 2bbb 2ba6 8fbc
00000220: f46a f23a 53c1 83bb 5ce9 b73b de2c 90bb
00000230: f887 29bc a759 2b3b 9089 c93b 037a ff3b
00000240: d986 c03b 5d6a 5cb9 2efa 873b f316 213c
00000250: 12f7 b43a 555f d9bb 22f0 c0ba f5d1 20bc
00000260: 762e a6bc b169 f93c b6bd d83b c6de 5b3c
00000270: 5a83 75bc f7c5 1a3b 2d78 51ba 9145 dcbc
00000280: dc3a 9c3c 64b4 ca3c 9b4e b93c e7aa e9bc
00000290: 28b8 4e3c ff19 62bc f4d0 52bb 2108 4d3b
000002a0: c4a2 66bc f671 2dbc 31f7 89bc 3574 7cbc
000002b0: 9c1a ab3c 50ae d6bc abd5 d63c 9920 83ba
000002c0: 9389 febb 3935 9b3b 0547 40bb 58eb 293c
000002d0: c9b2 7f3c f2c0 a7bc 6708 68bc 89fe fbbc
000002e0: 4a1c 42bc 3394 cb3b 8e1d b0bc d827 a2bc
000002f0: 0f84 273c def6 a13c 63a6 bbbb 81ac 583c
00000300: b4dc ae3b 082f 29bc 5642 d43c 2a8b 52bc
00000310: e5ab 853c 24fd ca3a 02f6 a63a 3ad3 a6bb
00000320: d995 5a3c dc04 cfbc 7de4 44bc ca0b 20ba
00000330: 6015 333a 07c6 913b 5641 a73b 6d27 41bc
00000340: 953c 46bc 6e61 1cbb a3aa e83b b4bf b5bb
00000350: 125d 91bb 61d6 8f3c 2742 853c b5a9 a9bb
00000360: 663d 383c 7ab3 55bc c40e beb9 92fd 7cbc
00000370: 0dfd 0bbc 7469 5c3c 0b95 833b 6f8d 1ebc
00000380: 6319 abb9 efa9 bf3d 38fb 803d ba58 1ebe
00000390: 8ed6 c73c 96be 94bc bc0c 8e3c 63a2 b1bc
000003a0: ef32 64bd 8ed2 413d 19e2 6c3d 9289 3bbd
000003b0: 3dd2 593d e20e f33b 09d9 5d3c 05de 8dbd
000003c0: c84f 17bd 7ef1 6bbc 0100 f0bc 5801 053c
000003d0: d0d6 e43c a6fa a9bc bafa 53bd 6951 45bc
000003e0: a3dc c3bc f0f5 ff3c c6f6 08bc 56b8 5cbb
000003f0: 067a e73c 9fb5 96bc 4c4d a0bb 09ea 133b

hidden_features_psi.0.bias f4 [50]
0.006996525 -0.03770155 -0.019000892 0.015783839 0.009569832 -0.00768643 -0.00965801 0.005272689
-0.0024406833 0.011406456 -0.00053195533 0.0014996224 -0.03989049 -0.011189155 0.015844766 -0.013745118
-0.028985897 0.00164287 0.00019397549 -0.0028667653 -9.99081e-05 0.003377573 -0.0044700527 -0.009757622
-0.0004511996 0.0009913123 -0.01814059 0.00048001186 -0.00065827975 -0.011655276 0.0015118883 0.0114455
-0.0016507577 0.016935699 0.0047122696 0.005678762 0.004896622 -0.0027793085 -0.015651088 0.0
-0.006526363 0.008646053 0.005507576 0.03227335 -0.0002876453 -0.026490334 -0.005545884 0.006258926
-0.011444988 -0.018360198
00000000: 1b43 e53b f16c 1abd c2a7 9bbc 1c4d 813c
00000010: c9ca 1c3c 73de fbbb a13c 1ebc 85c6 ac3b
00000020: dff3 1fbb 25e2 3a3c eb72 0bba fa8e c43a
00000030: 3664 23bd b852 37bc e2cc 813c 3433 61bc
00000040: d573 edbc 9255 d73a e665 4b39 57e0 3bbb
00000050: c185 d1b8 465a 5d3b 8579 92bb 6fde 1fbc
00000060: fc8e ecb9 ecee 813a 939b 94bc 1aaa fb39
00000070: 6890 2cba c5f5 3ebc 8e2a c63a e885 3b3c
00000080: 3d5e d8ba bcbc 8a3c 6269 9a3b e914 ba3b
00000090: d873 a03b 0f25 36bb b636 80bc 0000 0000
000000a0: 1adb d5bb 2da8 0d3c e578 b43b 0f31 043d
000000b0: 19cf 96b9 4202 d9bc 3fba b5bb ad17 cd3b
000000c0: c283 3bbc 2068 96bc

hidden_features_psi.2.weight f4 [50, 50]
-0.013645792 0.008020287 0.004862535 -0.0019405474 -0.007247323 0.009119865 0.0011037407 0.01842961
-0.006897688 -0.007847598 0.0034170134 -0.0023100835 -0.003313894 -0.017504977 -0.009288481 -0.0044812965
-0.005764316 -0.012236149 -0.01120592 0.004137652 0.014862726 0.006350614 0.027830115 0.014443161
-0.003548763 0.0026831238 0.0032116028 0.01042153 0.0049853297 0.0034718404 -0.00048558158 0.00020018918
0.015587623 -0.00023975047 0.0050951135 -0.005566168 -0.021129541 0.008963481 -0.008035661 0.01565939
-0.008763446 -0.0020020783 -0.0066638878 -0.0011443023 0.010259365 0.00096660596 -0.0023580086 -0.0040156953
-0.00302042 -0.00565521 0.00088121166 -0.0028204543 -0.0030906664 0.004260546 0.0061591947 -0.0154959215
-0.017606799 -0.0027904285 0.020258483 -0.01605603 -0.0046678046 0.0049749613 -0.009051469 0.018376602
0.0016614138 -0.004994396 0.002973949 0.017099656 -0.010866699 -0.009290892 -0.00935157 -0.0031994411
-0.0024975303 -0.0037512716 -0.0082154125 -0.0032544676 0.007256226 -0.015820015 0.002151882 0.008475238
-0.008351543 -0.0026604014 0.004125029 -0.020360664 -0.015221391 0.001051456 0.004757935 -0.0068425066
0.009242331 -0.004944709 0.003203136 -0.008469321 -0.010135059 -0.015778488 -0.00072075677 -0.020163342
0.004463672 -0.0007207044 -0.009463198 0.010137923 0.045471366 -0.0084230425 0.040827084 -0.02772077
0.012850829 0.014190605 -0.0021590625 0.013190327 -0.0025798127 -0.027699824 0.0098061655 0.0029551021
0.01121213 0.009658191 0.048400626 -0.019451333 -0.013000837 0.008391453 -0.0056720763 0.007395684
0.0018863691 -0.0151239205 -0.009933607 0.006280997 -0.009210958 0.010634796 0.001593062 0.018163895
0.004472792 -0.02746548 0.006682469 0.016647302 0.012124132 0.03845207 -0.0027044367 -0.013257335
-0.011047941 -0.008608099 0.0008966257 -0.02416461 0.0008838106 0.028719647 0.0134783 0.094040744
-0.0056592724 0.0064573227 -0.0038438356 -0.004973669 -0.005829967 0.016707491 -0.0074537448 -0.014410015
-0.02365721 0.008545538 0.0005647602 0.014656568 0.0011375746 -0.0024618474 -0.01567768 -0.013629687
-0.004563168 -0.004219943 -0.0007976474 -0.0038090816 0.022462945 0.00072857924 -0.0044353623 -0.009367556
-0.0047545745 0.0012864628 -0.004953935 -0.0079994835 -0.013058001 -1.727197e-05 -0.0054817707 -0.006906115
-0.011824944 -0.015089274 0.0022515932 0.006002219 0.0037276377 -0.010174321 -0.0066298386 0.018249873
0.019842742 -0.001534714 -0.015111667 -0.0069054994 -0.004758244 0.00793801 -0.0006218526 0.01734594
0.006526738 -0.0019024953 0.018609935 0.0067287907 0.0062032444 -0.006240194 0.009153351 0.001763904
-0.012180115 -0.0063439957 -0.02612205 0.003035129 -0.015593298 -0.0075677577 0.013848908 0.013409659
-0.00088722835 -0.0012844458 0.0070809782 0.0018449557 -0.0208379 0.007776042 -0.011452997 -0.0014063752
0.0041767284 -0.0062215813 -0.009463947 0.019872306 0.010320942 -0.012154246 0.002900586 0.01311499
0.0068678036 -0.013046664 0.0021804853 -0.0043387995 0.0005119383 0.0070947115 0.005288836 -0.003088972
0.0015151581 -0.015078669 0.0030776449 -0.0077250134 -0.0023403594 -0.00036747268 -0.023356944 -0.00020460613
0.0040272637 -0.009992183 0.016551992 0.0031987675 -0.009706975 -0.015270454 -0.00752847 0.0107562905
0.013884239 -0.015978029 0.0027516924 -0.0012212675 0.00069909316 -0.010660389 -0.01115487 0.004444801
00000000: 9a92 5fbc 8667 033c e655 9f3b f759 feba
00000010: f47a edbb 7c6b 153c 64ab 903a b2f9 963c
00000020: 0006 e2bb 3693 00bc f9ef 5f3b c564 17bb
00000030: ea2d 59bb 9966 8fbc b72e 18bc d7d7 92bb
00000040: 96e2 bcbb 217a 48bc 0999 37bc 2495 873b
00000050: cb82 733c d018 d03b fbfb e33c 02a3 6c3c
00000060: 5d92 68bb 59d7 2f3b c179 523b 11bf 2a3c
00000070: fa5b a33b d187 633b a895 feb9 e0e9 5139
00000080: 3b63 7f3c 8765 7bb9 e9f4 a63b 6764 b6bb
00000090: dc17 adbc 90db 123c 01a8 03bc 1f48 803c
000000a0: 8e94 0fbc 4d35 03bb be5c dabb 6afc 95ba
000000b0: e516 283c d463 7d3a d288 1abb 1896 83bb
000000c0: 3df2 45bb 574f b9bb 1d01 673a 5fd7 38bb
000000d0: c78c 4abb 0d9c 8b3b 12d3 c93b 9be2 7dbc
000000e0: 223c 90bc 9fdf 36bb 1ef5 a53c ef87 83bc
000000f0: 62f4 98bb 0005 a33b 9d4c 14bc 878a 963c
00000100: ccc3 d93a 08a8 a3bb 96e6 423b 9414 8c3c
00000110: 3d0a 32bc d338 18bc 5437 19bc b7ad 51bb
00000120: 9bad 23bb e5d7 75bb f099 06bc e848 55bb
00000130: a3c5 ed3b fa98 81bc 9706 0d3b badb 0a3c
00000140: e9d4 08bc 215a 2ebb 402b 873b 68cb a6bc
00000150: 2463 79bc 02d1 893a 74e8 9b3b 1b37 e0bb
00000160: 256d 173c 3a07 a2bb b4eb 513b e8c2 0abc
00000170: 850d 26bc e341 81bc 2bf1 3cba 982d a5bc
00000180: ff43 923b a7ed 3cba 870b 1bbc 8819 263c
00000190: 2f40 3a3d cd00 0abc 4d3a 273d ab16 e3bc
000001a0: 498c 523c b67f 683c 0f7f 0dbb 3e1c 583c
000001b0: 1312 29bb beea e2bc 0aaa 203c 63aa 413b
000001c0: 15b3 373c 643d 1e3c bc3f 463d 6758 9fbc
000001d0: 7601 55bc 4e7c 093c d3dc b9bb 7e57 f23b
000001e0: 0b40 f73a 52ca 77bc 91c0 22bc d2d0 cd3b
000001f0: 8fe9 16bc 913d 2e3c 4ace d03a 73cc 943c
00000200: 8090 923b 49ff e0bc 9df8 da3b ec5f 883c
00000210: 4ca4 463c eb7f 1d3d eb3c 31bb 4b35 59bc
00000220: 6c02 35bc fc08 0dbc 880b 6b3a dcf4 c5bc
00000230: 86af 673a 7745 eb3c 16d4 5c3c 6f98 c03d
00000240: 6b71 b9bb f397 d33b dce8 7bbb 29fa a2bb
00000250: 4f09 bfbb 26de 883c 8b3e f4bb fc17 6cbc
00000260: c4cc c1bc 9602 0c3c 6a0c 143a 1a22 703c
00000270: ab1a 953a f256 21bb 7a6e 80bc 0d4f 5fbc
00000280: a186 95bb 7347 8abb 3619 51ba c9a1 79bb
00000290: 3604 b83c 20fe 3e3a 8456 91bb 617a 19bc
000002a0: 43cc 9bbb 879e a83a 9e54 a2bb 4410 03bc
000002b0: 3af1 55bc 46e3 90b7 6da0 b3bb b14c e2bb
000002c0: 69bd 41bc 0139 77bc 778f 133b 43ae c43b
000002d0: 624b 743b 32b2 26bc 1e3f d9bb c280 953c
000002e0: 3f8d a23c 7528 c9ba ed96 77bc 8747 e2bb
000002f0: 0beb 9bbb 6d0e 023c d203 23ba 1319 8e3c
00000300: 3fde d53b 265d f9ba dd73 983c 307d dc3b
00000310: 9644 cb3b 8b7a ccbb f0f7 153c cc32 e73a
00000320: 1b8f 47bc 4be1 cfbb e9fd d5bc 04e9 463b
00000330: 087b 7fbc f4fa f7bb 88e6 623c 30b4 5b3c
00000340: e394 68ba d95a a8ba 8d07 e83b 71d2 f13a
00000350: 3eb4 aabc 2bce fe3b 5aa5 3bbc 1f56 b8ba
00000360: f0dc 883b 68de cbbb ac0e 1bbc 3fcb a23c
00000370: 2b19 293c 9a22 47bc c217 3e3b 41e0 563c
00000380: 500b e13b adc1 55bc 79e6 0e3b 7d2c 8ebb
00000390: 9933 063a c17a e83b f94d ad3b 5a70 4abb
000003a0: 4598 c63a 860c 77bc 50b2 493b 1c22 fdbb
000003b0: b760 19bb 59a9 c0b9 1057 bfbc 8a8b 56b9
000003c0: 23f7 833b 41b6 23bc 0b98 873c 6aa2 513b
000003d0: 010a 1fbc ed30 7abc 62b1 f6bb 273b 303c
000003e0: b87a 633c 5be4 82bc bd55 343b f012 a0ba
000003f0: 5943 373a eaa8 2ebc eac2 36bc b1a5 913b

hidden_features_psi.2.bias f4 [50]
-0.0049605863 -0.1780426 0.52038544 -0.053112324 -0.32837126 -0.00077885186 -0.44164446 -0.7762544
-0.026745312 -0.059844762 -0.01639724 0.0 0.14321001 0.0 -0.010327293 -0.27576655
-0.016980218 -0.12759282 -0.065170534 0.0 0.24971227 -1.1654377 -0.17521083 -0.038913142
-0.035327464 -0.89012706 -0.059958015 -0.00090262835 -0.43726248 -0.10709021 -0.09818463 -0.033340763
0.36790532 0.0 -0.057218537 -0.009292722 -0.09697934 -0.053745948 -0.02618316 0.0
-0.06404177 -0.0053971484 -0.2762023 -0.29832652 -0.016526537 -0.06278592 -0.11762433 0.34845683
-0.1809361 -0.06854145
00000000: 6a8c a2bb cd50 36be fb37 053f 4f8c 59bd
00000010: 4720 a8be dd2b 4cba 391f e2be 9cb8 46bf
00000020: fc18 dbbc c81f 75bd 8153 86bc 0000 0000
00000030: a5a5 123e 0000 0000 ce33 29bc 4631 8dbe
00000040: 191a 8bbc b1a7 02be 2178 85bd 0000 0000
00000050: 93b4 7f3e 102d 95bf 786a 33be 6363 1fbd
00000060: 88b3 10bd 5edf 63bf 8996 75bd 5d9e 6cba
00000070: dee0 dfbe 1d52 dbbd 0615 c9bd 5390 08bd
00000080: 165e bc3e 0000 0000 fc5d 6abd 8040 18bc
00000090: 1b9d c6bd b624 5cbd 117e d6bc 0000 0000
000000a0: 5528 83bd 90da b0bb 636a 8dbe 41be 98be
000000b0: a962 87bc e895 80bd 06e5 f0bd ef68 b23e
000000c0: 5047 39be 765f 8cbd
